…
ataset_type': 'dataset_mmsr', 'epoch': 100, 'batch_size': 256, 'lr': 0.001, 'lr_dc': 0.0001, 'lr_dc_step': 40, 'l2': 0, 'patience': 6, 'topk': [5, 20], 'cuda_id': 0, 'tune_parameters': False, 'model_name': 'VLGraph', 'dataset': 'beauty', 'log_dir': './log/VLGraph/beauty/bs256-Sep-22-2023_20-43-51-lr0.001-hNone', 'noise_type': [], 'noise_level': 0}
Tue 01 Sep 2023 11:03:36 INFO  Used data_folder: /ssd1/holdenhu/Amazon2014_dataset/Amazon_Beauty/dataset_mmsr/thre-0_filt-core_core-5_split-[ratio]_ratio-0.2__imagec-20_textc-20_k-1-resnet-t5
Tue 01 Sep 2023 11:05:57 INFO  VLGraph(
  (img_emb_project): Linear(in_features=128, out_features=128, bias=True)
  (txt_emb_project): Linear(in_features=128, out_features=128, bias=True)
  (img_cor_project): Linear(in_features=128, out_features=128, bias=True)
  (txt_cor_project): Linear(in_features=128, out_features=128, bias=True)
  (img_cor_param_layer): Linear(in_features=128, out_features=128, bias=True)
  (img_cor_prediction_layer): Linear(in_features=128, out_features=50, bias=True)
  (txt_cor_param_layer): Linear(in_features=128, out_features=128, bias=True)
  (txt_cor_prediction_layer): Linear(in_features=128, out_features=50, bias=True)
  (local_agg_img): RGATLayer(
    (a_params): ParameterList(
        (0): Parameter containing: [torch.cuda.FloatTensor of size 128x1 (GPU 0)]
        (1): Parameter containing: [torch.cuda.FloatTensor of size 128x1 (GPU 0)]
        (2): Parameter containing: [torch.cuda.FloatTensor of size 128x1 (GPU 0)]
        (3): Parameter containing: [torch.cuda.FloatTensor of size 128x1 (GPU 0)]
…
    (dropout_atten): Dropout(p=0.2, inplace=False)
    (leakyrelu): LeakyReLU(negative_slope=0.1)
  )
  (local_agg_item): RGATLayer(
    (a_params): ParameterList(
        (0): Parameter containing: [torch.cuda.FloatTensor of size 128x1 (GPU 0)]
        (1): Parameter containing: [torch.cuda.FloatTensor of size 128x1 (GPU 0)]
        (2): Parameter containing: [torch.cuda.FloatTensor of size 128x1 (GPU 0)]
        (3): Parameter containing: [torch.cuda.FloatTensor of size 128x1 (GPU 0)]
    )
    (dropout_atten): Dropout(p=0.2, inplace=False)
    (leakyrelu): LeakyReLU(negative_slope=0.1)
  )
  (modality_projection): Sequential(
    (0): Linear(in_features=128, out_features=128, bias=True)
    (1): ReLU(inplace=True)
    (2): Linear(in_features=128, out_features=1, bias=True)
  )
  (embedding): Embedding(12102, 128, padding_idx=0)
  (pos_embedding): Embedding(150, 128)
  (glu1): Linear(in_features=128, out_features=128, bias=True)
  (glu2): Linear(in_features=128, out_features=128, bias=False)
  (projection): Sequential(
    (0): Linear(in_features=128, out_features=128, bias=True)
    (1): ReLU(inplace=True)
    (2): Linear(in_features=128, out_features=1, bias=True)
  )
  (fusion_layer): Linear(in_features=384, out_features=128, bias=True)
  (dropout_out): Dropout(p=0.4, inplace=False)
  (loss_function): CrossEntropyLoss()
  (image_embedding): Embedding(12102, 128, padding_idx=0)
  (text_embedding): Embedding(12102, 128, padding_idx=0)
)
Tue 01 Sep 2023 11:05:57 INFO  -------------------------------------------------------
Tue 01 Sep 2023 11:05:57 INFO  epoch: 0
Tue 01 Sep 2023 11:05:57 INFO  start training.
Tue 01 Sep 2023 11:08:33 INFO  	Loss:	5358.622 	 V_loss_cor: 28.954 	 V_loss_corcode: 1379.965 	 T_loss_cor: 14.775 	 T_loss_corcode: 1339.659
Tue 01 Sep 2023 11:08:33 INFO  start predicting.
Tue 01 Sep 2023 11:08:50 INFO  Current Result: Recall@5: 0.6717 	 MMR@5: 0.3278 	 NDCG@5: 0.1398
…
